…
tf.keras.layers.Dense(100, activation="relu",
kernel_initializer="he_normal"),
tf.keras.layers.BatchNormalization(),
tf.keras.layers.Dense(10, activation="softmax")
])
That’s all! In this tiny example with just two hidden layers batch normalization is
unlikely to have a large impact, but for deeper networks it can make a tremendous
difference.

Let’s display the model summary:

>>> model.summary()
Model: "sequential"
_________________________________________________________________
Layer (type) Output Shape Param #
=================================================================
flatten (Flatten) (None, 784) 0
_________________________________________________________________
batch_normalization (BatchNo (None, 784) 3136
_________________________________________________________________
dense (Dense) (None, 300) 235500
_________________________________________________________________
batch_normalization_1 (Batch (None, 300) 1200
_________________________________________________________________
dense_1 (Dense) (None, 100) 30100
_________________________________________________________________
370 | Chapter 11: Training Deep Neural Networks

13 However, they are estimated during training based on the training data, so arguably they are trainable. In
Keras, “non-trainable” really means “untouched by backpropagation”.

batch_normalization_2 (Batch (None, 100) 400
_________________________________________________________________
dense_2 (Dense) (None, 10) 1010
=================================================================
Total params: 271,346
Trainable params: 268,978
Non-trainable params: 2,368
_________________________________________________________________
As you can see, each BN layer adds four parameters per input: γ , β , μ , and σ (for
example, the first BN layer adds 3,136 parameters, which is 4 × 784). The last two
parameters, μ and σ , are the moving averages; they are not affected by backpropaga‐
…
